workshop/model_zoo/cifar_net_state_dict.pth (torch, 250887 bytes, 10 tensors)

conv1.weight f4 [6, 3, 5, 5]
0.16557756 -0.004166508 0.12035317 -0.04380599 0.18018056 0.3043327 0.609377 0.5534726
0.35152915 0.35480818 -0.0976957 0.15377769 0.12890546 0.06180932 0.05024006 -0.48206177
-0.5090873 -0.542665 -0.25574443 -0.21866335 -0.11932612 0.015071692 -0.18121305 -0.059478305
-0.044553783 -0.043362048 -0.15865824 -0.23045935 -0.45756403 -0.10678087 0.14066362 0.46675965
0.36979887 0.27952632 0.07897742 -0.1156473 0.13877544 0.07001335 -0.05733921 0.004427636
-0.44379765 -0.45335612 -0.39542535 -0.20338377 -0.2289294 0.0017634575 0.24045368 -0.008709259
0.0038367992 -0.11122976 -0.10570561 -0.21373881 -0.34185314 -0.39152253 -0.08211131 0.23396713
0.3372606 0.25218287 0.27212045 0.045335058 -0.16104956 0.23799385 0.19692022 0.050793502
0.11167524 -0.15940416 -0.09851328 -0.3129936 -0.15830213 -0.008533421 0.22579677 0.2894344
0.2614598 0.09916319 0.15375355 0.20098591 0.4523708 0.39167815 0.1558272 0.04168565
0.39498577 0.39249146 0.11527386 -0.08501197 0.12394699 0.21223256 0.07136197 -0.16105768
-0.122646585 0.19408378 -0.11087247 -0.27140948 -0.14501959 -0.20664641 0.019179348 -0.14987302
-0.34285355 -0.2273379 -0.13784763 -0.112306274 -0.067983806 -0.038315065 -0.07748344 -0.2517348
-0.36500165 -0.07707828 -0.23716454 -0.2132232 -0.36520463 -0.056594435 -0.097921595 -0.30365285
-0.3952906 -0.2139169 0.14492394 -0.19515142 -0.21218301 -0.3303102 -0.032540746 0.17694715
-0.14593522 -0.14452893 -0.06411348 0.050388772 0.17614228 0.04539102 -0.06087057 0.010451115
-0.07873603 -0.19681692 0.13479298 -0.01896429 -0.06862794 -0.15442243 -0.081795834 -0.068797305
0.0011156681 -0.09304748 -0.0022578281 0.2342185 0.038042996 -0.07837269 0.057706274 0.095298804
0.2818638 0.16158672 0.16969617 0.21905352 0.23604783 0.472374 0.035544187 0.16448446
-0.020239674 -0.31141648 0.079361804 -0.11858523 0.35909247 0.25629652 -0.37914157 -0.12980643
0.05352922 0.36486095 0.18514106 -0.3982556 -0.102588594 0.03738362 0.14509815 -0.023432406
-0.28413337 0.053505532 -0.040283337 -0.06454543 -0.06875068 -0.09570162 0.15861446 0.12602966
0.1860367 0.087251216 -0.32844347 0.07729367 0.097399555 0.35844928 0.2213821 -0.5792735
-0.23805377 0.031208908 0.28309458 0.20442212 -0.38833553 -0.15562446 0.036812857 0.112868205
0.103952914 -0.27025834 0.056901183 -0.0048161773 0.053838845 -0.048037622 0.007838346 0.039292328
0.052785806 0.119914815 -0.08072378 -0.38462013 -0.16668458 0.036611583 0.46625027 0.1706745
-0.519306 -0.16847181 0.16513938 0.3256234 0.20354734 -0.4904639 -0.23668778 0.28350997
0.17755416 0.15256083 -0.22909695 -0.10086935 0.13044117 0.1273856 -0.023279235 -0.10125527
0.07907632 -0.38501403 -0.22667894 0.25458267 -0.079690106 -0.10086605 0.0046655876 0.28893134
0.3055758 -0.43621677 -0.26293832 0.07891853 0.021172022 -0.3537955 -0.46270332 -0.005236797
-0.16404936 -0.43156368 -0.498922 -0.032377638 0.4902986 -0.083038636 -0.08222516 0.19325405
0.031821538 -0.007292724 -0.19720554 -0.13758038 0.41603777 -0.02621477 -0.12816426 0.35839874
00000000: 2a8d 293e 3487 88bb b97b f63d e96d 33bd
00000010: 4181 383e 7fd1 9b3e 2200 1c3f 61b0 0d3f
00000020: a1fb b33e 6ba9 b53e af14 c8bd e677 1d3e
00000030: cbff 033e c52b 7d3d 85c8 4d3d cdd0 f6be
00000040: 8c53 02bf 18ec 0abf eff0 82be 49e9 5fbe
00000050: 4161 f4bd 42ef 763c ea8f 39be 869f 73bd
00000060: 077e 36bd 679c 31bd 4e77 22be 89fd 6bbe
00000070: d545 eabe eeaf dabd 200a 103e 1ffb ee3e
00000080: 4756 bd3e 131e 8f3e eabe a13d 7ed8 ecbd
00000090: 261b 0e3e 2963 8f3d 85dc 6abd b415 913b
000000a0: 7239 e3be 4b1e e8be 3175 cabe d643 50be
000000b0: 786c 6abe d123 e73a 7d39 763e 48b1 0ebc
000000c0: cf72 7b3b 6ecc e3bd 2f7c d8bd 59de 5abe
000000d0: 6007 afbe a475 c8be f929 a8bd 1495 6f3e
000000e0: 6cad ac3e 1d1e 813e 5f53 8b3e 41b1 393d
000000f0: 2dea 24be a9b4 733e 74a5 493e d90c 503d
00000100: fdb5 e43d d83a 23be 55c1 c9bd b240 a0be
00000110: f419 22be c3cf 0bbc 4537 673e bf30 943e
00000120: 0fde 853e 1216 cb3d 9271 1d3e 40cf 4d3e
00000130: 259d e73e 0a8a c83e 2a91 1f3e 92be 2a3d
00000140: 933b ca3e a4f4 c83e b414 ec3d c11a aebd
00000150: ebd7 fd3d 7e53 593e 3926 923d 4eec 24be
00000160: 222e fbbd e6bd 463e 1b11 e3bd 2ff6 8abe
00000170: 0480 14be 1e9b 53be 021e 9d3c 5078 19be
00000180: 808a afbe 44cb 68be ee27 0dbe d500 e6bd
00000190: 183b 8bbd 42f0 1cbd a3af 9ebd 62e3 80be
000001a0: 7fe1 babe 38db 9dbd 43db 72be 2f57 5abe
000001b0: 1afc babe 91cf 67bd 1e8b c8bd 6378 9bbe
000001c0: 8863 cabe 080d 5bbe f166 143e c6d5 47be
000001d0: 8146 59be 6b1e a9be 7249 05bd a231 353e
000001e0: 0b70 15be 64ff 13be ee4d 83bd 7564 4e3d
000001f0: a45e 343e efeb 393d 6b53 79bd 273b 2b3c
00000200: 5b40 a1bd 608a 49be 2c07 0a3e 005b 9bbc
00000210: ce8c 8cbd ea20 1ebe 9384 a7bd 9ae5 8cbd
00000220: 9c3b 923a ad8f bebd 12f8 13bb f9d6 6f3e
00000230: f9d2 1b3d dc81 a0bd 6a5d 6c3d 052c c33d
00000240: 7450 903e fd76 253e d5c4 2d3e 914f 603e
00000250: 86b6 713e 01db f13e c896 113d 9d6e 283e
00000260: accd a5bc fb71 9fbe 7188 a23d d0dc f2bd
00000270: f8da b73e 4c39 833e d81e c2be faeb 04be
00000280: 7541 5b3d 0ecf ba3e 9e95 3d3e 28e8 cbbe
00000290: f819 d2bd 911f 193d 9c94 143e 51f5 bfbc
000002a0: ee79 91be 9e28 5b3d 2400 25bd 6530 84bd
000002b0: 28cd 8cbd 36ff c3bd d46b 223e eb0d 013e
000002c0: 6880 3e3e c4b0 b23d be29 a8be 254c 9e3d
000002d0: 6b79 c73d aa86 b73e fdb1 623e 454b 14bf
000002e0: 5ec4 73be d3a9 ff3c c6f1 903e 0854 513e
000002f0: ead3 c6be 055c 1fbe 14c9 163d 7227 e73d
00000300: 44e5 d43d 4d5f 8abe 3711 693d 06d1 9dbb
00000310: 1f86 5c3d 19c3 44bd 686c 003c fef0 203d
00000320: ee35 583d e695 f53d 8252 a5bd eeec c4be
00000330: 5daf 2abe 07f6 153d 5bb8 ee3e 4cc5 2e3e
00000340: 3df1 04bf e083 2cbe 4c1a 293e 1cb8 a63e
00000350: b76e 503e 161e fbbe 485e 72be 3828 913e
00000360: c2d0 353e e838 1c3e 6498 6abe 9794 cebd
00000370: 5f92 053e 5f71 023e 18b4 bebc ec5e cfbd
00000380: c4f2 a13d 8f20 c5be 861e 68be a958 823e
00000390: 9134 a3bd dc92 cebd c9e1 983b cfee 933e
000003a0: 6e74 9c3e ce57 dfbe da9f 86be 0aa0 a13d
000003b0: f370 ad3c af24 b5be 73e7 ecbe 7099 abbb
000003c0: 8efc 27be eaf5 dcbe b472 ffbe 6a9e 04bd
000003d0: 6b08 fb3e 2910 aabd aa65 a8bd 64e4 453e
000003e0: 4d57 023d cef7 eebb 40f0 49be dfe1 0cbe
000003f0: e702 d53e 5bc0 d6bc 7e3d 03be 0a80 b73e

conv1.bias f4 [6]
-0.4892485 -0.2788526 -0.22640368 0.033284187 0.27688026 -0.5165082
00000000: c87e fabe c5c5 8ebe 5ed6 67be 0055 083d
00000010: 40c3 8d3e e239 04bf

conv2.weight f4 [16, 6, 5, 5]
0.01693484 -0.0529197 0.056466453 -0.036900114 -0.17131718 0.034127273 -0.03947968 0.01335591
-0.03762025 -0.099067904 -0.028400354 -0.12806879 -0.111196384 -0.09576732 -0.11681712 -0.19607295
-0.15404576 -0.21740179 -0.18880136 -0.108299516 -0.20562333 -0.12908402 -0.17640185 -0.12348975
-0.1772417 -0.04807991 -0.064696155 -0.1457591 -0.03997424 -0.1271915 0.06341115 0.012814506
-0.076942034 -0.02975433 -0.066054195 -0.019853711 -0.07036033 -0.09889353 -0.053443477 0.07721319
-0.033564948 -0.0984348 0.024428234 -0.017802548 0.007243577 -0.03439175 -0.0011258795 -0.10484874
-0.026218496 0.017092528 0.14759503 0.21783301 0.14549932 0.09428418 0.13459536 0.02111524
0.11723779 0.14788131 0.09928117 0.0043962165 0.059955712 0.098965816 0.15640149 0.04106157
0.032048754 -0.009429549 0.12594607 0.12505487 0.11562645 -0.043558743 0.011261701 0.083091125
0.23902185 0.19451073 0.12080871 -0.020509789 -0.1311515 -0.15770784 -0.057624795 -0.07217081
-0.06610943 -0.15615897 -0.1782776 -0.063310996 0.02075984 -0.08301311 -0.11923738 -0.19423686
-0.04239925 -0.002823108 -0.10678763 -0.16964674 -0.16065203 -0.10384993 -0.00075125555 -0.086182
-0.13504142 -0.14203148 -0.14372526 -0.086378776 0.21594745 0.16670303 -0.01821887 -0.020633612
-0.08764334 0.13850524 0.07980691 -0.030483093 -0.033635627 -0.15864696 0.039634198 0.11115893
-0.012505381 0.04613878 -0.0764935 -0.07027013 0.09288425 0.037781887 0.07423817 0.0054076263
0.015277582 -0.0011254734 0.18953492 0.24534333 0.19477679 -0.18220808 0.0019568345 -0.03683341
-0.009151763 -0.12990642 -0.06708235 -0.07923679 0.035526227 -0.04791598 -0.032900803 -0.13161105
-0.15055366 -0.016265659 0.06969603 -0.00684006 -0.06426737 -0.13051973 -0.096206985 -0.013180523
0.04963966 -0.023818607 -0.09504459 0.001183386 0.08199253 0.0989771 0.054845147 0.11800221
-0.025815535 0.034880277 0.18587413 0.05124811 -0.021049386 0.05962531 -0.085183956 -0.0011165811
0.06930143 0.04193302 0.093084365 0.03147815 0.118769936 0.21261957 0.105641484 0.06959536
0.03289418 -0.039080925 0.08135682 0.19196834 0.13180222 -0.020089857 0.05555339 -0.26495755
-0.23961551 -0.22500893 -0.14895284 -0.05540181 -0.2245038 -0.14379919 -0.17667286 -0.11139282
-0.09162953 0.02798559 -0.04202721 -0.04378322 0.09399858 0.080718 0.0063075693 0.05513185
0.054490224 0.12982686 0.28522113 -0.023135534 0.049989272 0.013460121 -0.004570852 0.1422867
0.08165923 0.025867812 -0.18846542 -0.20365222 -0.31238028 -0.09807235 -0.11948381 -0.15582855
-0.24049541 -0.30810103 -0.25697163 -0.2172448 -0.28058755 -0.16744982 -0.11494044 -0.29912335
-0.30824435 -0.23336935 -0.1348884 -0.068802424 -0.068120554 -0.1892413 -0.2363673 -0.19577312
-0.049504895 -0.040797006 -0.04817208 -0.0994827 -0.051369436 -0.053412106 -0.11123079 -0.09799698
0.018575532 0.03318879 0.15713249 -0.12716143 -0.14480148 0.00664476 0.023716465 0.13574092
-0.0811483 -0.0373689 -0.12935951 -0.044007547 0.05991879 -0.05839098 -0.015424757 -0.041082963
0.062171556 0.13732858 -0.0030116295 0.063688554 0.010757623 0.09361526 0.18307582 -0.0432087
00000000: efba 8a3c 54c2 58bd 5e49 673d 9324 17bd
00000010: c56d 2fbe 0ac9 0b3d 72b5 21bd bfd2 5a3c
00000020: b117 1abd 1de4 cabd dca7 e8bc 7724 03be
00000030: eeba e3bd a821 c4bd d03d efbd 59c7 48be
00000040: 2cbe 1dbe 939e 5ebe 2555 41be 23cc ddbd
00000050: ec8e 52be 9a2e 04be b0a2 34be 32e8 fcbd
00000060: d97e 35be 71ef 44bd 6b7f 84bd e041 15be
00000070: 07bc 23bd 7d3e 02be b4dd 813d eff3 513c
00000080: c993 9dbd 5abf f3bc 6c47 87bd 40a4 a2bc
00000090: 1419 90bd b188 cabd 8ce7 5abd f321 9e3d
000000a0: 667b 09bd 2f98 c9bd b81d c83c a6d6 91bc
000000b0: 875b ed3b 5dde 0cbd 3f92 93ba f0ba d6bd
000000c0: 2cc8 d6bc a105 8c3c 2723 173e 9e0f 5f3e
000000d0: c6fd 143e 1018 c13d 5ed3 093e def9 ac3c
000000e0: 5e1a f03d 336e 173e ed53 cb3d 230e 903b
000000f0: 1f94 753d 97ae ca3d b627 203e 2d30 283d
00000100: 8e45 033d 657e 1abc 02f8 003e 620e 003e
00000110: 8fcd ec3d a76a 32bd ff82 383c ae2b aa3d
00000120: 25c2 743e d22d 473e 8f6a f73d 2504 a8bc
00000130: 944c 06be 2a7e 21be fa07 6cbd 4ace 93bd
00000140: 6164 87bd 23e8 1fbe 678e 36be 32a9 81bd
00000150: 8a10 aa3c c702 aabd ba32 f4bd 07e6 46be
00000160: d6aa 2dbd e503 39bb 79b3 dabd e0b7 2dbe
00000170: f781 24be 46af d4bd e8ef 44ba 3080 b0bd
00000180: 4c48 0abe b370 11be b72c 13be 5be7 b0bd
00000190: 5421 5d3e 33b4 2a3e bd3f 95bc d207 a9bc
000001a0: 5a7e b3bd 51d4 0d3e ce71 a33d aeb7 f9bc
000001b0: 83c5 09bd 5974 22be 7857 223d 4ba7 e33d
000001c0: 5fe3 4cbc 04fc 3c3d a0a8 9cbd c9e9 8fbd
000001d0: 193a be3d 2ec1 1a3d 2f0a 983d 7532 b13b
000001e0: d34e 7a3c 9f84 93ba 7115 423e 483b 7b3e
000001f0: 9173 473e c194 3abe 3c3e 003b a1de 16bd
00000200: 47f1 15bc 3006 05be 7962 89bd e646 a2bd
00000210: f383 113d 8c43 44bd fec2 06bd 0cc5 06be
00000220: bd2a 1abe 8f3f 85bc cbbc 8e3d 9522 e0bb
00000230: 9c9e 83bd f7a6 05be 2b08 c5bd 1ff3 57bc
00000240: f552 4b3d 3d1f c3bc bda6 c2bd d81b 9b3a
00000250: b3eb a73d 81b4 ca3d 4ea5 603d 25ab f13d
00000260: 1a7b d3bc 9fde 0e3d ca55 3e3e 8ae9 513d
00000270: c36f acbc ab39 743d ed74 aebd 3f5a 92ba
00000280: e8ed 8d3d f5c1 2b3d 04a3 be3d 3cef 003d
00000290: a73d f33d f2b8 593e 905a d83d 0388 8e3d
000002a0: 0cbc 063d 5213 20bd 689e a63d 5993 443e
000002b0: 29f7 063e 7c93 a4bc f48b 633d 84a8 87be
000002c0: c55d 75be be68 66be 1887 18be 02ed 62bd
000002d0: 53e4 65be 1840 13be bbe9 34be eb21 e4bd
000002e0: 43a8 bbbd 0942 e53c b924 2cbd 0956 33bd
000002f0: 5482 c03d 7b4f a53d baaf ce3b efd1 613d
00000300: 2431 5f3d 55f1 043e 8108 923e bb86 bdbc
00000310: 8dc1 4c3d d787 5c3c 16c7 95bb 9bb3 113e
00000320: f43c a73d bce8 d33c 14fd 40be 358a 50be
00000330: 4ff0 9fbe 28da c8bd eeb3 f4bd 8591 1fbe
00000340: 6e44 76be 6bbf 9dbe c991 83be 6c75 5ebe
00000350: 2ca9 8fbe f777 2bbe e565 ebbd b226 99be
00000360: 34d2 9dbe 60f8 6ebe 2f20 0abe 49e8 8cbd
00000370: ca82 8bbd 79c8 41be 450a 72be c078 48be
00000380: a5c5 4abd c31a 27bd 1650 45bd 96bd cbbd
00000390: c268 52bd a7c6 5abd f8cc e3bd a4b2 c8bd
000003a0: b72b 983c f8f0 073d 57e7 203e 9b36 02be
000003b0: d746 14be 49bc d93b 0849 c23c abff 0a3e
000003c0: 1431 a6bd 2210 19bd d276 04be 4241 34bd
000003d0: 686d 753d 612b 6fbd 1fb8 7cbc 9c46 28bd
000003e0: 9aa7 7e3d dd9f 0c3e c25e 45bb 256f 823d
000003f0: be40 303c 5cb9 bf3d 3a78 3b3e 9bfb 30bd

conv2.bias f4 [16]
0.14708872 0.576205 0.6642828 0.4145181 0.35530716 -0.27416345 -0.46868384 0.4979968
-0.41162598 -0.41029128 -0.519686 0.51011693 -0.073914446 0.3298222 -0.19950826 -0.107219495
00000000: 6d9e 163e 2c82 133f 700e 2a3f b73b d43e
00000010: d2ea b53e 275f 8cbe 54f7 efbe 70f9 fe3e
00000020: a4c0 d2be b311 d2be 240a 05bf 0697 023f
00000030: 7560 97bd 75de a83e e54b 4cbe e595 dbbd

fc1.weight f4 [120, 400]
-0.1461568 -0.051275454 0.024669755 0.05629658 -0.008416642 -0.0032426894 0.05829292 0.077870294
0.012819059 0.004484967 -0.02020934 0.047632948 0.0012062329 0.05987479 0.034332357 0.012834817
-0.015660563 0.03703068 0.007980423 0.04187974 -0.102755114 0.06287649 0.032441292 0.062069546
-0.023581732 -0.15266153 -0.08699064 -0.048050478 -0.052929904 -0.13939948 -0.108524196 0.060883954
0.01817922 0.049524046 -0.072985314 -0.122655526 0.028485142 0.015984895 0.018249843 -0.071883924
-0.061919548 0.022007678 0.04712355 -0.06574431 -0.11402907 -0.05732904 0.0014509435 0.015145916
0.0503809 -0.029220235 0.109798536 0.020086095 0.010626282 -0.048718255 0.044049323 0.05721071
-0.019182868 -0.012126644 -0.07919227 0.023912763 0.031504918 0.037900284 -0.036674462 0.010235911
0.056510214 0.04469328 -0.020507965 0.016610673 0.055567943 0.104638524 0.11305349 -0.0055659073
0.053919896 0.027610905 0.04848114 -0.0041259783 0.028856382 -0.06762216 -0.0023829287 0.087012164
-0.028006017 0.021036867 -0.009936241 0.032748383 0.016572027 0.046727017 -0.020466536 -0.045438204
-0.03206342 0.035442084 0.12368186 -0.005256179 -0.033836734 0.0068128817 0.08952087 0.03347218
0.025773775 0.014501643 0.014853578 0.02939057 0.045076407 -0.033569515 -0.03627142 -0.06143332
-0.06467611 0.022550313 -0.021538999 -0.0388707 -0.06271996 -0.09339584 0.01904182 0.0009339698
-0.04405408 -0.023692464 0.0054233777 -0.07851949 0.062156323 0.035332974 -0.06917002 -0.011871368
0.0072680553 0.03222167 -0.035953272 -0.019474747 -0.012276427 -0.04988508 -0.04403867 -0.108541735
-0.02333356 0.0016411971 0.015407851 -0.06820172 -0.037443228 0.01665314 0.026120339 -0.071572736
-0.052625794 -0.051839486 0.023385521 0.026045116 0.0063987705 -0.057845946 -0.030621177 0.03966294
0.00095260225 -0.08370976 -0.01199491 0.031964716 -0.006201325 -0.06652235 -0.032903016 -0.0100737205
0.041217446 0.010945661 0.055602435 0.026913531 0.096516706 0.052213535 0.005869099 0.080300614
0.02954381 0.031678528 -0.0012398931 -0.080793224 0.026886506 0.101532385 0.0524793 0.024539316
-0.016759127 -0.047550093 0.013140496 -0.06541086 0.032303553 -0.039938793 -0.0638402 -0.01849909
0.052545846 0.09290406 0.04148564 0.10077647 -0.05368139 -0.06425789 0.08690259 0.06991701
0.09100882 -0.06912124 -0.019459615 -0.036071446 -0.0036904595 -0.015484002 -0.07701806 -0.016760584
-0.010252964 -0.032330967 -0.06589777 -0.023971181 0.024575751 0.01828425 -0.01667577 -0.038878083
-0.008189481 -0.013390401 -0.04825447 -0.0015712518 -0.056494456 -0.0023353403 0.028057802 -0.08717656
-0.0692298 -0.056885723 -0.0015873386 -0.006305592 -0.032052178 -0.06358821 0.019565003 -0.027153013
-0.04434978 -0.0167116 0.0235747 -0.012699864 0.0509226 0.032954756 0.06429366 0.07518793
0.035829913 0.00782088 0.090416774 -0.033394616 -0.03679625 -0.010006558 0.06398135 0.05590134
0.007038195 0.034408897 0.032056462 0.055002034 -0.063120894 0.010281425 0.09206233 0.049442798
0.06514092 0.04331243 0.05966841 0.12640426 0.07209354 0.018164549 0.016879402 0.011591923
0.073307775 0.099212974 -0.07239314 -0.032895092 -0.062091768 -0.004473321 -0.024543667 0.0128302965
00000000: 21aa 15be 3606 52bd 3a18 ca3c 3e97 663d
00000010: f5e5 09bc 4d83 54bb 8fc4 6e3d 767a 9f3d
00000020: 0807 523c a1f6 923b 0f8e a5bc c41a 433d
00000030: 761a 9e3a 453f 753d 16a0 0c3d 2049 523c
00000040: 954a 80bc 7bad 173d 52c0 023c 178a 2b3d
00000050: 4671 d2bd 64c5 803d 29e1 043d a33c 7e3d
00000060: 7a2e c1bc 4e53 1cbe 2628 b2bd 94d0 44bd
00000070: 07cd 58bd bdbe 0ebe ef41 debd 7461 793d
00000080: 96ec 943c bad9 4a3d 5379 95bd d232 fbbd
00000090: ac59 e93c c1f2 823c b280 953c e137 93bd
000000a0: 5a9f 7dbd 7249 b43c a004 413d f4a4 86bd
000000b0: 1388 e9bd dbd1 6abd 962d be3a 9326 783c
000000c0: 345c 4e3d 465f efbc 0ede e03d 988b a43c
000000d0: db19 2e3c cb8c 47bd 106d 343d c755 6a3d
000000e0: 6425 9dbc d5ae 46bc 8f2f a2bd b3e4 c33c
000000f0: 4d0b 013d 543d 1b3d f637 16bd 86b4 273c
00000100: 4177 673d 4d10 373d 5200 a8bc 1b13 883c
00000110: 369b 633d b94c d63d 9788 e73d 3762 b6bb
00000120: 1cdb 5c3d 4430 e23c 2994 463d 3733 87bb
00000130: 3864 ec3c 7d7d 8abd e92a 1cbb 6f33 b23d
00000140: e06c e5bc 8255 ac3c 9ecb 22bc 2b23 063d
00000150: 0fc2 873c d464 3f3d 70a9 a7bc 691d 3abd
00000160: ef54 03bd b82b 113d ea4c fd3d 063c acbb
00000170: 6398 0abd 983e df3b b856 b73d 201a 093d
00000180: 8623 d33c 4d98 6d3c 6c5c 733c 7ec4 f03c
00000190: 0aa2 383d 3080 09bd 5791 14bd 81a1 7bbd
000001a0: e974 84bd 6fbb b83c 8e72 b0bc e236 1fbd
000001b0: 5373 80bd 5146 bfbd 97fd 9b3c a7d5 743a
000001c0: 0d72 34bd b316 c2bc 97b6 b13b d4ce a0bd
000001d0: a197 7e3d 4fb9 103d 03a9 8dbd 2080 42bc
000001e0: de28 ee3b dffa 033d bd43 13bd 8189 9fbc
000001f0: 1123 49bc 4c54 4cbd e461 34bd 214b debd
00000200: 0626 bfbc 701d d73a 3671 7c3c 58ad 8bbd
00000210: 125e 19bd 2a6c 883c 52fa d53c ba94 92bd
00000220: 258e 57bd a455 54bd fe92 bf3c 915c d53c
00000230: c7ac d13b dfef 6cbd 43d9 fabc 9b75 223d
00000240: 0eb8 793a 0670 abbd 4d86 44bc 6fed 023d
00000250: 7c34 cbbb df3c 88bd 50c5 06bd 3f0c 25bc
00000260: a0d3 283d 6e55 333c 61bf 633d c479 dc3c
00000270: 8daa c53d dcdd 553d 9251 c03b a674 a43d
00000280: dc05 f23c 58c1 013d e983 a2ba eb76 a5bd
00000290: 1741 dc3c 36f0 cf3d 89f4 563d ad06 c93c
000002a0: 704a 89bc e3c3 42bd 3c4b 573c 21f6 85bd
000002b0: bb50 043d dc96 23bd a7be 82bd 678b 97bc
000002c0: 503a 573d 7c44 be3d d9ec 293d e563 ce3d
000002d0: 04e1 5bbd a499 83bd fcf9 b13d a630 8f3d
000002e0: d562 ba3d 708f 8dbd c569 9fbc a7bf 13bd
000002f0: a3db 71bb 9db0 7dbc a5bb 9dbd 7e4d 89bc
00000300: 0cfc 27bc 7a6d 04bd 69f5 86bd 365f c4bc
00000310: 1653 c93c dac8 953c a09b 88bc a03e 1fbd
00000320: 2c2d 06bc 6a63 5bbc 7ba6 45bd 76f2 cdba
00000330: bb66 67bd 820c 19bb 7ad9 e53c a089 b2bd
00000340: 5ac8 8dbd 0101 69bd 3f0e d0ba 249f cebb
00000350: 2549 03bd 893a 82bd c946 a03c ff6f debc
00000360: 1da8 35bd c4e6 88bc bb1f c13c 1713 50bc
00000370: 3794 503d 91fb 063d 65ac 833d 21fc 993d
00000380: 63c2 123d 2623 003c 6e2c b93d cbc8 08bd
00000390: aab7 16bd 8cf2 23bc a708 833d cef8 643d
000003a0: a9a0 e63b 58f0 0c3d a34d 033d d049 613d
000003b0: 8745 81bd 6c73 283c 2d8b bc3d 8884 4a3d
000003c0: 9a68 853d 6068 313d dd66 743d 1e70 013e
000003d0: c7a5 933d d2cd 943c ac46 8a3c 0dec 3d3c
000003e0: 6322 963d 2c30 cb3d db42 94bd 01bd 06bd
000003f0: f053 7ebd f094 92bb cd0f c9bc 2a36 523c

fc1.bias f4 [120]
0.0213748 -0.047647737 -0.029687542 0.051036667 0.08511473 -0.16118857 -0.07110119 0.03180852
-0.029813044 -0.050433625 0.04955315 0.0593287 -0.027048763 0.11974881 0.10440963 -0.028032057
0.054844294 0.08596112 0.08104436 -0.017749049 -0.013915637 0.11526188 -0.044071272 -0.051730126
0.108712375 0.0743558 -0.006461743 -0.029538738 -0.07374518 -0.02162224 0.10763774 -0.028393345
0.055952776 0.011180248 -0.061260473 0.01072736 0.056978654 0.050610133 0.0904793 0.17451905
0.3625351 0.101879 -0.00866362 0.11381901 0.12934096 -0.074802645 -0.017396752 0.06167864
0.039129563 0.06842568 0.13828711 0.056558255 0.034093797 0.015452575 -0.07350787 0.17184277
0.0035297938 0.062438853 -0.13142134 -0.05250157 0.050266903 -0.10599172 -0.012120805 0.06104455
0.09726614 0.06367419 -0.0018073953 -0.00645505 -0.013616178 0.07069434 0.0019769238 0.09077876
0.16406462 0.03452387 -0.14463694 0.12448918 0.02481344 0.052346952 0.008594716 0.006427627
0.06199056 -0.039127093 -0.07048635 0.063963436 -0.007570577 -0.064160734 -0.031816076 0.20150806
0.047188636 -0.012656184 -0.034738667 0.012791373 -0.009984923 -0.039769538 -0.09405264 0.060153015
-0.026565176 0.006630739 -0.161305 0.01008999 -0.03913236 0.07976042 0.1860475 0.09212149
0.20618196 0.081679046 -0.05475529 -0.07349672 -0.015196477 0.06337094 -0.04956044 0.023267256
0.05585247 -0.044170555 -0.007714078 0.1018628 -0.003658492 -0.037573423 -0.04951636 -0.06866608
00000000: 341a af3c 462a 43bd 4a33 f3bc d30b 513d
00000010: a250 ae3d 9e0e 25be 809d 91bd a749 023d
00000020: 7c3a f4bc 7d93 4ebd 3ef8 4a3d a702 733d
00000030: 5e95 ddbc dd3e f53d b7d4 d53d 7ca3 e5bc
00000040: 69a4 603d 620c b03d 96fa a53d 7466 91bc
00000050: 69fe 63bc 6c0e ec3d 1484 34bd f8e2 53bd
00000060: 98a4 de3d db47 983d 07bd d3bb 39fb f1bc
00000070: b707 97bd 2021 b1bc 2d71 dc3d 2999 e8bc
00000080: bd2e 653d 5c2d 373c 43ec 7abd cfc1 2f3c
00000090: 7362 693d 924c 4f3d 364d b93d 1fb5 323e
000000a0: 339e b93e f0a5 d03d dbf1 0dbc f119 e93d
000000b0: f571 043e 2132 99bd a283 8ebc bea2 7c3d
000000c0: 5246 203d c322 8c3d 239b 0d3e a1a9 673d
000000d0: f0a5 0b3d cc2c 7d3c 4b8b 96bd 8df7 2f3e
000000e0: 1d54 673b e2bf 7f3d 5193 06be e30b 57bd
000000f0: abe4 4d3d 3012 d9bd 5796 46bc da09 7a3d
00000100: 7833 c73d 9d67 823d 1fe6 ecba e284 d3bb
00000110: 6416 5fbc 32c8 903d 478f 013b 37ea b93d
00000120: 8e00 283e e768 0d3d b51b 14be 2ff4 fe3d
00000130: 8e45 cb3c c269 563d dad0 0c3c d89e d23b
00000140: d0e9 7d3d bb43 20bd 265b 90bd 43ff 823d
00000150: 9a12 f8bb b466 83bd 9351 02bd 2158 4e3e
00000160: df48 413d e25b 4fbc 224a 0ebd e892 513c
00000170: cd97 23bc 62e5 22bd ac9e c0bd 0263 763d
00000180: 369f d9bc ac46 d93b 232d 25be 7c50 253c
00000190: 4149 20bd 6e59 a33d 3c83 3e3e 31aa bc3d
000001a0: 5d21 533e 5847 a73d 1547 60bd 7385 96bd
000001b0: a5fa 78bc a0c8 813d e3ff 4abd f99a be3c
000001c0: 8fc5 643d 2fec 34bd 60c6 fcbb 729d d03d
000001d0: 4fc3 6fbb 97e6 19bd abd1 4abd cda0 8cbd

fc2.weight f4 [84, 120]
0.12609495 -0.046453502 0.038424693 -0.08604971 -0.034986954 0.030293057 -0.1099646 -0.024660425
0.050628223 -0.11713036 0.10678515 -0.028278127 0.04213404 0.021727283 0.0650313 0.033382386
0.12643512 0.0045526098 0.060904104 -0.02325775 -0.014714741 0.037156846 0.0069675148 -0.07653101
0.0565107 -0.07558831 0.114434615 0.020750912 -0.11362176 0.0554399 0.017580856 0.0038519085
-0.0022285562 0.036059525 0.02238483 0.04886315 -0.04019176 -0.057393305 0.017632075 -0.008567549
-0.07946405 0.0584324 -0.04464548 -0.058713607 -0.0758346 -0.017487615 -0.020913133 0.004978486
0.029080244 0.11900915 -0.023237817 0.012344236 -0.045788314 -0.017465852 0.10853953 0.043684043
0.06280995 0.2012546 -0.023822634 0.024070906 0.080094345 0.060666386 -0.0854847 -0.04880113
0.036279462 0.08015274 -0.039351437 -0.021547105 0.03393004 -0.07777818 0.11802146 0.01046079
0.0017612771 0.13946591 -0.14507248 0.0038775592 -0.02063137 0.017487625 0.019226111 -0.014875905
0.15262361 0.0044747125 0.18844102 0.13566253 0.08045624 0.1906622 0.09609773 -0.0011045102
-0.12130616 -0.06827831 0.0836152 -0.046606872 0.032608185 -0.0057877395 -0.0122014675 0.09574882
-0.044042304 0.063586086 -0.050839417 -0.107670486 0.074450284 0.1285819 0.1171404 0.0013387589
-0.040834136 0.1159094 0.005393207 -0.019729873 0.03231936 -0.004717278 0.14206102 0.09283665
0.04647936 0.10011242 -0.009400266 -0.09421481 -0.029316451 0.07401307 0.11674629 -0.035323087
-0.10296674 -0.03734577 0.0037686795 0.07837605 0.057865206 0.060621962 -0.1449819 -0.09395712
0.059710506 0.05578593 0.064734645 -0.08881711 -0.08938553 0.120172374 -0.020311357 0.056442097
0.12087394 0.17348565 0.048301082 0.04381773 -0.03712654 -0.019880546 -0.03561445 -0.13987944
0.057069764 -0.042671457 -0.011672977 -0.09354129 -0.14471845 -0.0559599 -0.02483887 -0.02940025
-0.03672203 -0.011320991 0.010132562 0.041850213 0.018116519 -0.1495582 0.030200467 -0.1313834
-0.012716855 -0.048604835 -0.0707199 -0.011159893 0.00797399 -0.09301154 0.031341664 0.020251902
-0.046050914 -0.10776087 0.06811653 -0.04869844 -0.065015 -0.071428455 -0.0017823434 0.04602849
-0.117254086 -0.04090409 -0.07595986 0.053437207 -0.06764262 -0.016351026 0.048115585 -0.11270506
-0.03475806 0.0006610378 -0.03813503 0.016598046 0.01048393 -0.01055547 -0.06304819 0.18226965
0.05054797 0.09108603 0.051170874 -0.048002012 -0.049278505 -0.010113832 0.010793907 0.062047925
-0.013801814 0.036124945 0.12004743 0.0019215904 -0.0287777 0.10888021 0.055671226 0.07843719
0.00037414656 -0.037230346 0.07740256 0.0030977854 0.029263327 -0.02228256 0.010100481 -0.02502771
0.055193402 -0.03552312 -0.013898155 0.04082656 0.00072378584 0.08816002 -0.087539464 -0.041456655
0.054499216 -0.029468333 -0.079890266 0.009986054 -0.044913422 0.066516295 -0.034225557 -0.099236265
0.011711266 -0.044905934 0.040741377 -0.043792218 -0.016554238 -0.031114856 0.017583404 0.06242946
0.12421434 -0.11047413 -0.057726745 0.122407556 -0.082926035 -0.022221854 -0.032598708 -0.017565075
0.032975964 0.06954283 0.053322267 -0.07976618 0.05602877 -0.07583542 0.04688188 -0.044530157
00000000: 091f 013e 0746 3ebd 3663 1d3d d53a b0bd
00000010: 7b4e 0fbd 2529 f83c 1f35 e1bd a904 cabc
00000020: 8a5f 4f3d 0be2 efbd 2cb2 da3d 88a7 e7bc
00000030: be94 2c3d 6afd b13c 212f 853d f8bb 083d
00000040: 3578 013e 0f2e 953b 9576 793d 0987 bebc
00000050: 1916 71bc c731 183d c04f e43b 4abc 9cbd
00000060: c477 673d 0bce 9abd b25c ea3d d1fd a93c
00000070: 86b2 e8bd f314 633d ba05 903c 4d70 7c3b
00000080: f80c 12bb 27b3 133d 6460 b73c ba24 483d
00000090: 1da0 24bd 3e15 6bbd 2471 903c e85e 0cbc
000000a0: 0cbe a2bd d056 6f3d 2ede 36bd ae7d 70bd
000000b0: 2c4f 9bbd 3042 8fbc 0552 abbc 9122 a33b
000000c0: b139 ee3c 12bb f33d 3c5d bebc 7a3f 4a3c
000000d0: 878c 3bbd 8c14 8fbc f949 de3d 0aee 323d
000000e0: 81a2 803d b015 4e3e af27 c3bc 5930 c53c
000000f0: 8108 a43d 517d 783d 9a12 afbd b2e3 47bd
00000100: c699 143d 1f27 a43d f92e 21bd 8e83 b0bc
00000110: 3afa 0a3d 2b4a 9fbd 3cb5 f13d bc63 2b3c
00000120: a7da e63a 27d0 0e3e e18d 14be a61e 7e3b
00000130: 1e03 a9bc 3542 8f3c 1480 9d3c 11ba 73bc
00000140: 5d49 1c3e 9ca0 923b aff6 403e 1eeb 0a3e
00000150: 3ec6 a43d f43c 433e e3ce c43d 36c5 90ba
00000160: 5d6f f8bd 80d5 8bbd 723e ab3d d9e6 3ebd
00000170: 2990 053d 14a7 bdbb aae8 47bc f517 c43d
00000180: b465 34bd 6c39 823d fe3c 50bd 5882 dcbd
00000190: 6479 983d f9aa 033e 4ee7 ef3d 4b79 af3a
000001a0: b241 27bd e861 ed3d 80b9 b03b 8ba0 a1bc
000001b0: 4e61 043d 6593 9abb 7278 113e 2421 be3d
000001c0: 2461 3e3d be07 cd3d 9303 1abc b2f3 c0bd
000001d0: 0e29 f0bc 2a94 973d ae18 ef3d f1ae 10bd
000001e0: 3ae0 d2bd e1f7 18bd f3fb 763b 9f83 a03d
000001f0: 1104 6d3d bc4e 783d 2376 14be 976c c0bd
00000200: 0193 743d ca7f 643d 9993 843d bfe5 b5bd
00000210: c30f b7bd ef1c f63d 0164 a6bc d42f 673d
00000220: c28c f73d 39a6 313e 5bd7 453d 387a 333d
00000230: 0012 18bd 87dc a2bc 75e0 11bd 8e3c 0fbe
00000240: fcc1 693d 44c8 2ebd 0440 3fbc 9392 bfbd
00000250: 1331 14be 3536 65bd e37a cbbc cbd8 f0bc
00000260: d769 16bd ae7b 39bc 0c03 263c 216b 2b3d
00000270: 1869 943c c925 19be f866 f73c 5f89 06be
00000280: 5b5a 50bc dd15 47bd 98d5 90bd fcd7 36bc
00000290: 57a5 023c d67c bebd 1e60 003d 51e7 a53c
000002a0: e29f 3cbd bbb1 dcbd ae80 8b3d 0478 47bd
000002b0: 9626 85bd 1549 92bd 859d e9ba 5f88 3c3d
000002c0: e922 f0bd 0c8b 27bd d890 9bbd f9e0 5a3d
000002d0: 3788 8abd 96f2 85bc d914 453d e9d1 e6bd
000002e0: 785e 0ebd 7f49 2d3a 7a33 1cbd a0f8 873c
000002f0: cac4 2b3c daf0 2cbc 691f 81bd e5a4 3a3e
00000300: 630b 4f3d 508b ba3d 8d98 513d c29d 44bd
00000310: 42d8 49bd 7cb4 25bc edd8 303c f725 7e3d
00000320: 0121 62bc c0f7 133d 6ddb f53d e0dd fb3a
00000330: 36bf ebbc 96fc de3d 8307 643d ada3 a03d
00000340: 1a29 c439 d97e 18bd 3c85 9e3d 3704 4b3b
00000350: a5b9 ef3c ea89 b6bc 7d7c 253c e906 cdbc
00000360: 7a12 623d b180 11bd 16b5 63bc c039 273d
00000370: 72bc 3d3a 3e8d b43d e447 b3bd 74ce 29bd
00000380: 923a 5f3d 9367 f1bc 829d a3bd 8c9c 233c
00000390: 23f7 37bd b239 883d 1930 0cbd 623c cbbd
000003a0: 9ce0 3f3c 49ef 37bd 6ee0 263d 785f 33bd
000003b0: c19c 87bc 95e4 febc 120b 903c 09b6 7f3d
000003c0: 1664 fe3d 4340 e2bd e172 6cbd d0b0 fa3d
000003d0: 20d5 a9bd 9b0a b6bc 3986 05bd a2e4 8fbc
000003e0: ce11 073d 796c 8e3d 7368 5a3d 735c a3bd
000003f0: 6c7e 653d 9a4f 9bbd 3707 403d 4165 36bd

fc2.bias f4 [84]
-0.025868844 0.018913401 0.045819774 0.2344322 -0.08774165 -0.06683122 0.08445893 -0.12373965
0.08530699 0.22437246 0.006190902 -0.09303248 -0.07659875 0.17252845 -0.107062325 0.017047752
0.16488945 -0.0983501 0.090659656 -0.16242793 -0.02662859 -0.0362671 0.3826386 0.1470234
0.053468525 0.11284834 -0.088212825 -0.0056594117 0.049579844 -0.084224895 0.23145147 0.15173565
-0.032586504 0.11146623 0.3631173 0.20402204 0.17495066 -0.15279984 -0.08233537 0.1985177
-0.17298067 0.057775453 -0.024404375 0.051995806 -0.11757234 -0.03905011 -0.058492396 -0.11864463
-0.10718102 -0.009383147 -0.081996195 0.0069153905 0.15578085 -0.047081966 0.112344556 0.07625155
0.31981277 -0.036926746 0.1532384 0.3332019 -0.019935437 0.15863967 0.004469374 -0.044159304
-0.043446034 -0.037382267 -0.1285741 0.23073119 -0.08657342 0.007633276 -0.12879199 0.121179186
-0.10067101 0.0972999 0.18288818 -0.08073731 -0.009050511 -0.03812015 -0.097433396 0.05975767
-0.024720358 0.20801288 -0.014256372 0.3228188
00000000: e6ea d3bc 47f0 9a3c 84ad 3b3d ff0e 703e
00000010: e5b1 b3bd cfde 88bd cef8 ac3d 376b fdbd
00000020: 6eb5 ae3d e5c1 653e 0ddd ca3b d087 bebd
00000030: cedf 9cbd 4cab 303e 7e43 dbbd baa7 8b3c
00000040: c8d8 283e c76b c9bd c5ab b93d 8253 26be
00000050: 3324 dabc d08c 14bd 35e9 c33e 4d8d 163e
00000060: d001 5b3d 081d e73d eda8 b4bd 9672 b9bb
00000070: 3c14 4b3d 1a7e acbd 9d01 6d3e 9760 1b3e
00000080: 6d79 05bd 6848 e43d 83ea b93e 27eb 503e
00000090: 4426 333e 9077 1cbe 729f a8bd 3948 4b3e
000000a0: d821 31be f4a5 6c3d afeb c7bc 8ef9 543d
000000b0: c4c9 f0bd 02f3 1fbd b995 6fbd f5fb f2bd
000000c0: b981 dbbd c5bb 19bc 9fed a7bd 809a e23b
000000d0: 0485 1f3e 05d9 40bd e714 e63d c629 9c3d
000000e0: 80be a33e 8040 17bd 87ea 1c3e 7099 aa3e
000000f0: a44f a3bc 7072 223e d473 923b 63e0 34bd
00000100: 78f4 31bd 261e 19bd eea8 03be cc44 6c3e
00000110: 684d b1bd 8f20 fa3b 0ce2 03be cb2c f83d
00000120: 9a2c cebd 2c45 c73d 0a47 3b3e 9a59 a5bd
00000130: 9848 14bc e023 1cbd 298b c7bd 75c4 743d
00000140: 5982 cabc 5401 553e 8f93 69bc 8148 a53e

fc3.weight f4 [10, 84]
0.16585314 0.1716986 0.026663193 -0.1276628 -0.08120712 0.052642994 -0.26032996 0.029175343
0.077956595 0.059236445 0.057477713 0.039548427 -0.021997768 -0.2532059 -0.038973514 -0.10753902
0.18359958 -0.08200124 0.09145925 0.017242594 0.06209696 0.01931849 -0.25306278 -0.02341037
0.08074761 0.24819867 0.19164334 -0.13182883 0.3234556 -0.009666707 0.26801106 -0.055887938
0.047719736 -0.12884782 -0.043801356 0.2242584 0.15629281 0.12630019 0.16864519 -0.122747235
0.189568 0.21936916 -0.034943216 -0.2356615 -0.041424077 -0.13449807 -0.0255165 -0.048633512
-0.07596396 0.21991841 0.0075206035 0.12354651 0.02186996 0.11047861 0.256016 0.13395509
-0.20156369 0.12943351 -0.07145031 0.2415619 0.11636955 -0.076220036 -0.042306043 0.008650095
0.041063983 -0.018777607 0.028781878 -0.094872825 -0.040044736 -0.15419303 0.07098386 0.0080603175
-0.01453518 -0.06068161 0.1460559 -0.080188595 0.08178411 -0.22498006 -0.07040401 -0.08376261
-0.04892443 -0.017546408 -0.13957214 0.14629962 0.0013652998 -0.19276245 0.030820964 0.023164338
-0.026041167 0.1850503 0.1343754 0.044090755 0.033941407 -0.26007926 -0.06418849 -0.053189028
-0.008566242 -0.20444277 -0.06421968 0.09326429 -0.09806793 0.12789021 -0.058007576 -0.1400718
0.07250351 -0.054775406 -0.16003712 -0.014301363 0.030781318 -0.03785441 -0.09635522 0.08414737
-0.03907223 0.06458006 -0.17517273 -0.06528465 -0.09584222 -0.13222624 -0.3629515 0.2539346
-0.2913323 0.04282229 -0.12436713 -0.15571558 -0.1754948 0.12040064 -0.04192772 0.20366561
0.2917213 -0.08715386 0.06146752 0.09751539 -0.09739251 0.30735138 0.052753184 -0.13555208
0.14482951 0.019111292 0.23885415 -0.042857345 -0.1829457 -0.048903808 -0.26164305 -0.04085754
0.2748637 0.06725157 0.096647084 0.030812725 0.017509889 0.035704337 0.055742584 -0.15802811
0.33065107 0.015536156 0.24147072 0.11289723 0.009946248 -0.040289618 0.10326756 -0.009306882
0.038316444 -0.0009802964 0.11564132 -0.12261878 0.01992509 0.13507998 0.0558238 -0.36457482
0.19174045 -0.124698274 0.15840678 0.08783767 -0.10241812 -0.045067433 0.034012295 -0.019254653
0.20259893 0.08523854 0.14123406 -0.102640875 -0.050251015 0.20790827 -0.13594902 -0.16310601
0.1755306 -0.17578371 -0.058053125 -0.122416444 0.08973211 -0.040208552 0.18479991 0.214407
0.23443733 -0.013413671 0.06220834 -0.05906453 0.11945331 0.006962815 0.22959073 -0.06796511
-0.025235945 -0.08098157 0.27377522 -0.19996907 0.1614381 -0.03788292 -0.10195671 0.008079457
0.22080037 0.08604853 0.19042554 0.14541796 -0.0364526 0.06493168 0.018422883 -0.03796199
-0.122330576 0.030925373 0.11480429 0.10485098 -0.20369369 0.033104606 -0.031669445 -0.032361314
-0.14307746 0.06969904 0.11060957 0.05207785 -0.07570663 -0.14077082 -0.021559613 -0.0024909547
-0.117581554 -0.06796573 0.035027936 0.10414659 -0.092979416 0.15704352 -0.091177754 -0.13954785
0.22426173 -0.011943566 -0.11003114 0.08787657 0.1590137 0.030221717 0.028738268 0.08210421
-0.06400581 -0.18682767 -0.05705357 0.17494527 0.09674739 0.12122167 -0.024452774 -0.041294534
00000000: 68d5 293e c2d1 2f3e c56c da3c 09ba 02be
00000010: eb4f a6bd 2ea0 573d f849 85be 2101 ef3c
00000020: b5a7 9f3d eaa1 723d c06d 6b3d 88fd 213d
00000030: aa34 b4bc 34a4 81be b1a2 1fbd 6b3d dcbd
00000040: 8701 3c3e 44f0 a7bd fd4e bb3d 5740 8d3c
00000050: 6259 7e3d cf41 9e3c 7291 81be 1bc7 bfbc
00000060: 015f a53d cb27 7e3e 273e 443e 23fe 06be
00000070: f99b a53e 1c61 1ebc bf38 893e c0ea 64bd
00000080: c575 433d aff0 03be 0d69 33bd fea3 653e
00000090: 390b 203e d654 013e 53b1 2c3e e762 fbbd
000000a0: 1d1e 423e 4fa2 603e 9e20 0fbd 4051 71be
000000b0: 4bac 29bd ddb9 09be fb07 d1bc ef33 47bd
000000c0: fe92 9bbd 4b32 613e 656f f63b f405 fd3d
000000d0: a128 b33c 9c42 e23d 8714 833e 862b 093e
000000e0: b666 4ebe 388a 043e 8a54 92bd 015c 773e
000000f0: 2953 ee3d 4019 9cbd 1a49 2dbd 21b9 0d3c
00000100: b532 283d 7fd3 99bc f9c7 eb3c af4c c2bd
00000110: f305 24bd c7e4 1dbe fc5f 913d 6c0f 043c
00000120: f724 6ebc 488d 78bd ae8f 153e eb39 a4bd
00000130: 6d7e a73d 2c61 66be fa2f 90bd bb8b abbd
00000140: fc64 48bd 7cbd 8fbc 00ec 0ebe 91cf 153e
00000150: dcf3 b23a 8563 45be 3f7c fc3c 23c3 bd3c
00000160: 4954 d5bc d37d 3d3e b499 093e 8298 343d
00000170: 2506 0b3d 1c29 85be 4175 83bd bddc 59bd
00000180: 6c59 0cbc 7259 51be 9c85 83bd 5901 bf3d
00000190: d7d7 c8bd a7f5 023e 5a99 6dbd fb6e 0fbe
000001a0: b87c 943d 2d5c 60bd c5e0 23be 4450 6abc
000001b0: 1a29 fc3c 3a0d 1bbd e355 c5bd 7555 ac3d
000001c0: 340a 20bd 8d42 843d 7b60 33be f5b3 85bd
000001d0: ed48 c4bd 5166 07be c7d4 b9be b703 823e
000001e0: 8229 95be 6d66 2f3d 32b4 febd e873 1fbe
000001f0: e9b4 33be 9c94 f63d 67bc 2bbd b88d 503e
00000200: 7f5c 953e b97d b2bd 5ec5 7b3d 26b6 c73d
00000210: b975 c7bd 295d 9d3e b913 583d 2ace 0abe
00000220: 304e 143e 498f 9c3c 2f96 743e 2f8b 2fbd
00000230: 1e56 3bbe 5c4f 48bd 14f6 85be 3c5a 27bd
00000240: efba 8c3e 31bb 893d e8ee c53d f86a fc3c
00000250: e670 8f3c b63e 123d 5652 643d 1fd2 21be
00000260: 194b a93e 5c8b 7e3c 1a44 773e aa36 e73d
00000270: 96f5 223c ba06 25bd f17d d33d e47b 18bc
00000280: b4f1 1c3d 4a7d 80ba 5bd5 ec3d 8e1f fbbd
00000290: f139 a33c 6852 0a3e 7fa7 643d 8da9 babe
000002a0: 9c57 443e cf61 ffbd 6335 223e 3de4 b33d
000002b0: 97c0 d1bd a198 38bd 7a50 0b3d efbb 9dbc
000002c0: 1876 4f3e 8b91 ae3d a99f 103e 6135 d2bd
000002d0: 02d4 4dbd e8e5 543e 3836 0bbe 4305 27be
000002e0: 4bbe 333e a500 34be 1dc9 6dbd 79b5 fabd
000002f0: 78c5 b73d b9b1 24bd 303c 3d3e 828d 5b3e
00000300: 5710 703e 04c5 5bbc 2cce 7e3d a6ed 71bd
00000310: f0a3 f43d 5328 e43b d519 6b3e 4b31 8bbd
00000320: 9dbb cebc aad9 a5bd 442c 8c3e b1c4 4cbe
00000330: 0750 253e 1f2b 1bbd aece d0bd b35f 043c
00000340: 7e19 623e 363a b03d eafe 423e 72e8 143e
00000350: 524f 15bd e7fa 843d 96eb 963c 087e 1bbd
00000360: 7488 fabd 3557 fd3c 831e eb3d 1cbc d63d
00000370: 1495 50be b298 073d d2b7 01bd 4c8d 04bd
00000380: e682 12be 5fbe 8e3d 4587 e23d 954f 553d
00000390: 140c 9bbd 3a26 10be c99d b0bc 493f 23bb
000003a0: 99ce f0bd 9e31 8bbd 7479 0f3d cf4a d53d
000003b0: fe6b bebd 04d0 203e 67bb babd a2e5 0ebe
000003c0: dea4 653e f2ae 43bc 0258 e1bd a2f8 b33d
000003d0: 7dd4 223e 8993 f73c 846c eb3c 4126 a83d
000003e0: 7a15 83bd c14f 3fbe 01b1 69bd da24 333e
000003f0: 7f23 c63d 1143 f83d 2f51 c8bc 7524 29bd

fc3.bias f4 [10]
-0.20436662 -0.45238912 0.2530146 0.286744 0.45699263 -0.15554923 0.16340837 -0.31836534
0.46381828 -0.18362693
00000000: 7c45 51be 8c9f e7be 218b 813e 1cd0 923e
00000010: f0fa e93e 4c48 1fbe 8654 273e c800 a3be
00000020: 9779 ed3e b308 3cbe
